models/healthkit/ensemble_meta_learner.pth (torch, 5824 bytes, 4 tensors)

fc1.weight f4 [64, 10]
00000000: 33a4 e8bf d68c 75be a962 863f 4dea 20be
00000010: 2a98 783c ad8f d63c 237d 88bd 752c 6b3f
00000020: b8e3 f43e 0be2 65be 10e5 7f3f ca2d 723f
00000030: 4cb0 87bf daf5 d5bd 764b b43b a1d0 adbd
00000040: ad98 2abc 9318 6d3e 1971 d43e cf3b d83e
00000050: 9a0f bd3e f6f4 77bf 28b1 163f 9ee8 4d3e
00000060: b67a 3fbb 9c5f 6f3b 0d93 113c bfb4 fa3d
00000070: 4879 5b3e 1a10 053e 5a89 8cbd 2192 843f
00000080: 4f19 933d 8e1c 2f3e f293 95be c07c 2ebf
00000090: fd4d ddbd 0a74 263f 727f 3d3e 1565 453f
000000a0: 73aa 0fc0 9e22 4e3f 5f78 703f 561c 23be
000000b0: f32b 38bd 6dc5 cfbc 0e63 e0bd b3ac 443f
000000c0: 9dd5 99be 07a9 60be aafc d0be 59e2 09bf
000000d0: 71ca 443f dece 1e3e 2b28 d83e 3aa4 fcbe
000000e0: 0aeb 1abd 8e87 f53e 61dc 313f be6b a73d
000000f0: edc0 adbf 98ce 16be c0ab 383f 9a0b f2bd
00000100: 0691 5f3d a9bf c83c ecba 95bc 2923 413f
00000110: c59e f73e fc17 d6bd b404 1e3e 6df3 053f
00000120: 09c1 edbe 872d 833e 9e68 95be ded7 d03c
00000130: 43e0 c83a eb9a 103e 97dc 95bd 5d3e 0e3f
00000140: bec4 963e f11a 8c3e df5e bdbd 6486 47be
00000150: b871 fcbe cb0d 13be 3382 423e 82ca 8b3e
00000160: 3679 e93e ac33 1f3f 9e22 a23f a4d0 85bf
00000170: 16e7 e33d 6834 6f3d afce 163e 9ef6 aa3d
00000180: aa53 8a3e a4e9 7fbc 77bf 14bf 3c54 993f
00000190: 3c41 ad3f f1b9 a23f 1f2f 27bf 155d a13e
000001a0: 5f18 033c 4c0f 2abc 6f98 b7bc 8ede c83e
000001b0: 8e48 1e3f 72df 223f 9939 c83e a648 0ac0
000001c0: 6ffd 2f3f bdf7 1bbe b247 183c e404 babb
000001d0: 4322 c639 d9bd d93c 500e ed3c 4837 3abd
000001e0: 5d3c 953e 47fa cbbf 3ca2 f63e e12a 8d3e
000001f0: 8f9b 2bba 1166 79bb 4b6a 25bb 66bd 473e
00000200: 7d80 9e3e 7734 793e a4e8 1440 25cb d03f
00000210: c674 5b3f 964d 9bbe 2e52 7f3d 0e29 7fbf
00000220: 74ba b4bd 2a0a 3b3f 6f73 fb3f d319 d33f
00000230: f849 563f 4761 5b3f f86f 95be b575 9fbe
00000240: b128 12bf 7383 183f 7753 9ebc 07e2 533e
00000250: a9ed 88be 84f4 243f cc36 9bbe c6f7 22bf
00000260: d5b5 e33e d3c1 8f3e 6e32 9d3c 124b e5bc
00000270: 30df a13b 0f6f 653d a681 8f3d c53a c5be
00000280: b192 963e a081 703e 4185 4b3f 853a 54be
00000290: c67c 153f d9a6 113f 1cc4 15bd c543 9c3f
000002a0: bd8d ae3f 288c c13e 8a14 eb3e c824 293e
000002b0: 0c24 573f 8c6f ce3d f39e adbd 0d4a 89bd
000002c0: c7e4 ce3e f06a be3e f4a0 2b3f 0211 74be
000002d0: c1ae a1be 5eed f8be eda7 4d3f d31a 93be
000002e0: 4979 a33d 52cb 143f b62d 8ebe abf3 c7bf
000002f0: ca54 653f 71ec 16bf 9cb4 f63e 3280 3ac0
00000300: ea03 323f d2d4 453e a001 853c a1b2 ec3d
00000310: c317 013d 1b6b 9c3e 3d97 b13e fd36 373e
00000320: 39e6 043e 361d 5bbe c2d2 2c3e f1b5 833e
00000330: 988b 7d3e b89f cd3e 0101 f53e 5830 d93e
00000340: 3c47 c93e 2635 573e f503 923f d968 d93f
00000350: fe55 84be 9089 dcbd 35d6 963c 8a58 1abe
00000360: e829 08bd d2fa 633f 0dcf 0e3f b006 1a3f
00000370: bddb f13e 13df aabe 6cf1 353f bd9e 953e
00000380: 1e16 07be a4dd 70bf b68e 08bd 39a7 dcbe
00000390: a14c 283f bb6e 0fbf 66e7 03c0 ce43 9dbe
000003a0: b76f a43f e0cf 663d 5aba 10ba 551a fabc
000003b0: 67cb c8bd 9b59 863f 719b 193f bdbf cbbe
000003c0: 24ee 993e 773d ae3e eb3e d2bc b61e 733e
000003d0: e69e 30be 90e6 3ebe c7c7 a43e 9536 c0bc
000003e0: e7fb 9a3d a5bd 673e 2f97 07bf 0dca b63f
000003f0: fee2 a63e 3e98 51be 04ea ddbe 3f1f 55bf
-1.817511 -0.23979506 1.0498859 -0.15714379 0.0151729975 0.026191557 -0.06664493 0.9186471
0.47829986 -0.2244951 0.99958897 0.9460112 -1.0600677 -0.10447283 0.0055021597 -0.084870584
-0.010412377 0.23153906 0.41492537 0.4223313 0.36925966 -0.96858156 0.5886407 0.20108268
-0.0029217429 0.0036525493 0.008885157 0.12241506 0.21432984 0.12994424 -0.06862135 1.0357095
0.071825616 0.17100736 -0.29214436 -0.68159103 -0.10805891 0.6502081 0.18505648 0.77107364
-2.2447784 0.8052157 0.9393367 -0.15928778 -0.04496379 -0.025362695 -0.10956393 0.7682602
-0.30045786 -0.21939479 -0.40817767 -0.53861004 0.768714 0.15508601 0.42218146 -0.49344045
-0.037821807 0.47954983 0.69476897 0.08174847 -1.3574501 -0.14727247 0.7213707 -0.11818619
0.054581665 0.024505453 -0.018277608 0.75444275 0.4836332 -0.104537934 0.15431482 0.52324563
-0.46436337 0.25620672 -0.2918138 0.025493558 0.0015325624 0.14121597 -0.07317465 0.5556391
0.29446977 0.27364305 -0.09246611 -0.1948486 -0.4930551 -0.1436073 0.1899498 0.2730294
0.4560029 0.6218822 1.2666814 -1.0454297 0.111280605 0.058399588 0.14727281 0.0834782
0.27016956 -0.015619669 -0.5810465 1.1978831 1.3535533 1.2712995 -0.65306276 0.31516328
0.008001416 -0.010379624 -0.022411553 0.39232296 0.6182946 0.636222 0.39106444 -2.160684
0.68746084 -0.15231223 0.009294437 -0.0056768525 0.0003779103 0.026579784 0.028937489 -0.045462877
0.29147616 -1.5935754 0.4817065 0.27571777 -0.00065463124 -0.003805522 -0.0025240357 0.19505844
0.30957404 0.2433642 2.3266993 1.6311995 0.8572506 -0.3033263 0.062334232 -0.9967202
-0.088246256 0.73062384 1.9644603 1.6492256 0.8370662 0.8569531 -0.29186988 -0.3114449
-0.5709334 0.59575576 -0.019326909 0.20691691 -0.2674382 0.644356 -0.30315244 -0.6365932
0.44474664 0.28077564 0.019189086 -0.027989898 0.004939936 0.056014117 0.0700715 -0.385214
0.29408792 0.23486948 0.79500204 -0.20725448 0.58393514 0.56895214 -0.036563978 1.2208182
1.3637005 0.37802243 0.45914108 0.16517937 0.8403938 0.1007987 -0.08477583 -0.06703577
0.40408918 0.37190962 0.6704247 -0.23834613 -0.3157864 -0.48618597 0.8033436 -0.28731403
0.07982118 0.5812274 -0.2776925 -1.5621237 0.895825 -0.5895453 0.4818467 -2.9140744
0.6953722 0.19319466 0.016236126 0.11557508 0.0315168 0.30550465 0.34685698 0.1789207
0.12978448 -0.21397862 0.16877273 0.25724748 0.24760282 0.40160918 0.47852328 0.42419696
0.3931216 0.21016368 1.1407458 1.6985122 -0.25846857 -0.107684255 0.018412689 -0.15072837
-0.03324309 0.89054596 0.55784684 0.60166454 0.4723796 -0.33373317 0.71071506 0.2922267
-0.13192031 -0.94088197 -0.033339225 -0.4309633 0.65741926 -0.56028336 -2.0609984 -0.30715793
1.2846593 0.05635059 -0.00055209326 -0.030530134 -0.09804421 1.0496095 0.6000281 -0.39794722
0.300645 0.3403127 -0.025664767 0.23742184 -0.17248115 -0.1864264 0.32183668 -0.023463527
0.07567578 0.22630937 -0.5296506 1.4280411 0.32595056 -0.20468232 -0.43342602 -0.832508

fc1.bias f4 [64]
00000000: 2d31 bebf 59ed 2bc0 8d9f 4dbf 7674 16bf
00000010: 7023 e0bf 53a5 f0bf 2eec a3bf f9e1 9bbf
00000020: f2cc 1c3e 07d6 95bf 390c 31c0 ba97 b5bf
00000030: ba35 87bf 41f5 29c0 7aea 37bf 8404 2dbf
00000040: bd23 47c0 5d45 9abe 70ff bdbf 1f22 f2bf
00000050: 18d5 efbd 4bfa 51c0 9849 60bf b010 d9bf
00000060: 21c6 853e 4d47 e0bf 5313 99bf 75f2 88bf
00000070: 5890 e8bf 3564 65bf cdbb dfbd c27a 443e
00000080: 6c4f 04bf ef17 9bbf af16 47c0 b99a 91bf
00000090: f628 d7bf 63c9 5dbf 805f c7bf 8c97 75bf
000000a0: 0317 3abf c17a d4bf 9177 363e 2471 2fc0
000000b0: 670f 66bf 4f55 07c0 e47b 7bbf 0cde 71bf
000000c0: 7a9c 11c0 7c2b cebf 1358 85bf a883 d3bf
000000d0: 2efd 97bf a285 fabf 0f07 4a3e 1e18 96bf
000000e0: 2ab4 463e 0f2d 1ebf 3666 a6bf e970 89bf
000000f0: a686 8dbf 8d00 9fbf 12f0 32bf 3208 e1bf
-1.4858757 -2.6863616 -0.8032158 -0.58771455 -1.7510815 -1.8800453 -1.2806451 -1.2178336
0.15312555 -1.1705941 -2.766371 -1.4186928 -1.0563271 -2.655594 -0.7184216 -0.67585015
-3.1115563 -0.30131045 -1.4843578 -1.8916663 -0.11710566 -3.2809017 -0.87612295 -1.6958218
0.26127723 -1.7521759 -1.1959022 -1.0698992 -1.816905 -0.8960603 -0.10924492 0.19187453
-0.5168369 -1.2116679 -3.1107595 -1.1375343 -1.6809375 -0.86635417 -1.5576019 -0.9593437
-0.72691363 -1.6599962 0.17819048 -2.7412806 -0.8986725 -2.1145818 -0.9823592 -0.9447944
-2.2751756 -1.610702 -1.0417503 -1.6524553 -1.1874139 -1.9572031 0.19729255 -1.172611
0.19404665 -0.61787504 -1.2999942 -1.0737582 -1.1056716 -1.2422043 -0.6989757 -1.7580626

fc2.weight f4 [3, 64]
00000000: bc74 15c0 8f12 183e 013e 2ec0 9def 73be
00000010: b0bf 3e41 3a87 89c0 67b7 95c0 6d52 44bf
00000020: 21fb 05be 578b b7be 5aef d83e da75 68c0
00000030: a608 8dc0 6f43 abbe 00b5 2bbe 4957 e4bf
00000040: 2e97 1441 7d80 45be eb0f e2be f893 833f
00000050: 7625 9cbd b224 4f3e 0325 17bf faf2 bd40
00000060: 07d6 79bd 740a 32bf 7fe6 cac0 d07a 23c0
00000070: ef84 f73f 7c79 f6be 0dac fdbd 02a8 bebc
00000080: ca8f 48be d717 eabe dc17 8dbe 7836 a9c0
00000090: 6895 9cc0 fcc4 4fc0 cdb6 04c0 0a61 20c0
000000a0: ff07 2a40 6f34 3dbf d43f bfbd 2c96 153f
000000b0: ebf4 d33c cd2b b9bf 3fe1 b5bf 91a3 a7be
000000c0: 3322 a740 f533 b6c0 a39e 7bbe 7861 e0bd
000000d0: af45 adbe 723e eb3f 78d3 003c 63a6 d6be
000000e0: 877f 77bd ed3a f3bf ff00 81c0 118f c7be
000000f0: e4ea 9dbe 05cf fb3d 5e30 f9be c2ff c93e
00000100: 8570 fa3e 0fb9 c03e 98be 703f 386b 68be
00000110: 961c 2ec2 65c5 01c0 0cbe ae3f 0148 ad3f
00000120: bcf3 d6bd 0638 0cbf aa0d 8c3f 1ef8 873f
00000130: 3201 2b3f 9f84 91be 4792 40bd e34d 393f
00000140: 9ff2 45c1 aff1 96be 6895 31bf 7806 63c0
00000150: 0263 65be d526 ce3e 4f59 26bf c1cd ffc1
00000160: bbdb 5fbd 1daa 39bf 5f9f 993f 21aa 833f
00000170: faa8 ffc0 8b6c 883f 73b6 15be 40ff 07bc
00000180: e545 44bf b20b 07be 1aa4 8bbe fcee a23e
00000190: 0d5e d43f 9e33 693f acf1 3f3f ffef 653f
000001a0: 9046 54c1 d2d5 43bf a72e aabd 3c4d 663f
000001b0: 04e5 04bf 70dd 96c0 cadf b5bf e9f2 06bf
000001c0: a059 c1c1 44ca a13f 3126 ebbe 8df5 843f
000001d0: 3455 0ebf 2a27 f7c0 0734 723c 17d1 1fbf
000001e0: 8cd5 8ebd c99a fa3e a7ff 143f d63d 31bf
000001f0: b9d0 0abf b56a a4c0 f605 8cbf 62d5 a5be
00000200: 560b 253f 04f8 0cc0 98a7 aa3f d663 edbe
00000210: 16e5 0641 8857 2640 26dd fc3e 31de 7abf
00000220: 2b93 91be 76c6 b4be 9e6f 71c0 05a8 9b3f
00000230: 671c 3c40 38ca 6ac0 dd02 fabe f058 443f
00000240: 52bc 1741 6b2e 9ebe 5fde 02bf b3fb b3be
00000250: ac45 a4bd 7f20 57c0 aebc 67bf e26f f040
00000260: 14d8 79be 7be0 95bf f938 6340 e425 0f3f
00000270: bf8c 903f 345e a2bf 8d20 9ebe d8c5 74be
00000280: 7b8e b13f 5fbb 7abe fa12 5cc0 d275 6240
00000290: b552 6b3f 06c3 d93f 0811 ee3e 1a8b 4f3e
000002a0: 40f9 ea40 a736 99bf f9cb 8dbe 8174 7fc0
000002b0: 3dba 573e 50f9 4940 99bf 2f40 66f1 dfbe
000002c0: 88ba 0341 35b8 2d40 ac1b 84be 4648 cebf
000002d0: b301 b4be f325 1c40 8685 3fbe d845 c3be
000002e0: 978b 88be 407e 5c3f bf87 803e ce85 d9be
000002f0: ecf3 97be fc37 6440 22c6 c93f de01 67bf
-2.33525 0.1485083 -2.7225344 -0.23821874 11.921799 -4.297757 -4.678638 -0.7668827
-0.1308408 -0.35848495 0.4237011 -3.632193 -4.4073057 -0.33449885 -0.16768265 -1.7839137
9.286909 -0.19287296 -0.4415277 1.0279531 -0.076243326 0.20228842 -0.5904085 5.93591
-0.060995128 -0.695472 -6.3406367 -2.5543709 1.9337443 -0.4813956 -0.12386332 -0.023273472
-0.19586101 -0.45721313 -0.27557266 -5.287899 -4.893238 -3.246398 -2.0736573 -2.5059228
2.656738 -0.7390813 -0.09338346 0.5843227 0.025873622 -1.4466492 -1.4209365 -0.3274198
5.2229247 -5.6938424 -0.24572234 -0.10956091 -0.33842227 1.8378432 0.007862918 -0.41923818
-0.060424354 -1.9002358 -4.0313716 -0.38976339 -0.3084327 0.12295345 -0.48669714 0.3945294
0.4891397 0.37641189 0.94040823 -0.2269715 -43.527916 -2.027673 1.3651748 1.3537599
-0.104957074 -0.54772985 1.094167 1.0622594 0.667987 -0.28421494 -0.0470145 0.7238447
-12.371734 -0.29481265 -0.693686 -3.5472698 -0.2240105 0.40264 -0.64980024 -31.975466
-0.05465291 -0.725252 1.2001761 1.0286294 -7.989377 1.0658125 -0.1462038 -0.008300602
-0.7666915 -0.13188055 -0.27273637 0.31822956 1.6591202 0.91094387 0.74978137 0.8981933
-13.267227 -0.7649814 -0.083096795 0.899616 -0.5191195 -4.714531 -1.420892 -0.527144
-24.168762 1.2639852 -0.45927575 1.0387436 -0.5559876 -7.723531 0.014782912 -0.6242842
-0.069743246 0.48946217 0.58202595 -0.6923498 -0.54224735 -5.1380258 -1.0939319 -0.3238936
0.6447042 -2.2026377 1.3332396 -0.4636523 8.430929 2.5990925 0.49387473 -0.9799529
-0.28432593 -0.35307664 -3.7724376 1.216065 2.9392335 -3.6685925 -0.4883031 0.7669821
9.483477 -0.3089479 -0.5112056 -0.3515297 -0.08021101 -3.3613584 -0.9052228 7.5136576
-0.24398834 -1.1709131 3.5503523 0.5591719 1.1292952 -1.2684999 -0.3088421 -0.23903596
1.3871607 -0.24485539 -3.4386582 3.5384412 0.91923076 1.7012641 0.4649737 0.20267907
7.342926 -1.1969804 -0.2769468 -3.9914858 0.21067138 3.1558418 2.7460692 -0.4373886
8.23304 2.714368 -0.25802362 -1.6115806 -0.35157546 2.4398162 -0.18703279 -0.38139224
-0.26669 0.8613014 0.25103566 -0.42484897 -0.29678285 3.565917 1.576359 -0.90237224

fc2.bias f4 [3]
00000000: 2edc 87bd 2cd0 443d dc7c 1f3e
-0.06633793 0.04805009 0.15574974
